flask_test/model.pth (torch, 9641 bytes, 17 tensors)

conv1.weight f4 [2, 16]
000000 4d 10 db c0 31 28 bb 40 07 a0 59 41 6d 7a c5 41
       -6.84574 5.848656 13.601569 24.684778
000010 62 a4 1f 41 fc e1 67 41 fd 5c cf 40 79 98 dc 3f
       9.9776325 14.492672 6.480101 1.7234031
000020 84 a0 57 41 87 26 56 c1 04 ad 8a bf bd 0e e1 c0
       13.476688 -13.384406 -1.083405 -7.033049
000030 95 ce 22 c0 52 a2 16 c1 a7 5c ca 40 e5 31 2a c0
       -2.5438588 -9.414629 6.32381 -2.6592953
000040 43 5a 27 40 38 9e 32 41 23 e8 e5 c0 73 54 04 40
       2.6148841 11.163628 -7.184587 2.0676544
000050 28 ca b2 c0 b8 8e 0d c1 72 66 92 c0 d5 e9 9c 41
       -5.5871773 -8.847343 -4.5750055 19.614176
000060 23 fb d0 c0 50 c8 93 3f fb 4f e5 bf 08 66 2e 3f
       -6.5306563 1.1545506 -1.7915033 0.6812444
000070 2e f3 b2 3f b8 eb 73 40 b1 9d ca c1 e9 cc 39 40
       1.3980463 3.8112621 -25.326998 2.9031317

conv1.bias f4 [16]
000000 e9 cb 62 bf e1 0b c8 c0 11 11 68 be e7 71 90 c1
       -0.8859239 -6.25145 -0.2266276 -18.055616
000010 1c ce 24 bf 28 58 f6 3e 63 19 8b 3f b1 7d 30 bf
       -0.64377 0.48114133 1.0867122 -0.6894179
000020 2e 39 c0 c0 81 5d 5e 3f d6 50 cc bf 8a f3 fd 3f
       -6.00698 0.86861426 -1.5962169 1.9839947
000030 b5 91 c5 3d 42 f5 1a bf c0 9b ae c0 c1 f9 0e bf
       0.09646932 -0.60530484 -5.4565125 -0.55849844

conv2.weight f4 [16, 16]
000000 fa d9 18 bd f2 e1 f5 bd 10 43 57 40 85 84 b5 bf
       -0.037317254 -0.12005986 3.3634682 -1.4181067
000010 c3 31 04 c0 6a 62 e6 bf 1b da db 3e 87 2f a0 bf
       -2.0655372 -1.7998784 0.4293984 -1.2514504
000020 eb 64 5f 3f 2d 46 cd bf 48 20 0a c0 39 f8 ad bf
       0.87263364 -1.6037041 -2.1582203 -1.3591377
000030 ad d2 dd 3f 04 db 3b bf d8 21 ce 3f 94 96 9d 3d
       1.7329918 -0.73381066 1.6104078 0.07694736
000040 b0 f7 cb 3f fd df c3 be 2f 4d 8d 40 3b 69 f8 bf
       1.5934963 -0.38256827 4.415672 -1.9407114
000050 9e 37 ef bf fc 15 05 c0 ed 04 32 41 2f 04 2d 40
       -1.8688848 -2.0794668 11.126203 2.7033803
000060 b0 d4 e2 40 8f fc 8d bf e2 88 6e c1 bc 60 40 c0
       7.088463 -1.10927 -14.908419 -3.0059042
000070 04 40 df c0 aa a6 18 c0 29 3e 07 bd b3 f6 a6 3f
       -6.9765644 -2.3851724 -0.033018265 1.3044037
000080 8a 39 05 41 bf ed 5e be 13 03 d5 40 b4 55 f3 bf
       8.326548 -0.2177038 6.6566253 -1.901053
000090 54 18 01 c0 8a 7a 06 c0 ed c1 8a 41 a0 29 09 41
       -2.0171099 -2.1012292 17.34469 8.572662
0000a0 1c 98 9e bf a7 2b 00 c0 7d 33 31 41 2f 39 97 bf
       -1.239017 -2.0026643 11.07507 -1.1814326
0000b0 5c db 91 c1 6a 0b eb bf c8 51 f2 c0 b5 b6 91 40
       -18.23211 -1.8362858 -7.572483 4.553553
0000c0 d2 f8 bd c0 8a ae a7 be 13 b9 3e c0 8b 46 d4 bf
       -5.9366236 -0.3275035 -2.980046 -1.6584028
0000d0 ea c9 f8 bf 20 b4 df bf 4f 28 42 c1 88 44 65 c2
       -1.9436619 -1.7476845 -12.134841 -57.316925
0000e0 de 2c 94 40 97 c1 b6 bf f0 d8 58 c2 bc 5d 49 3f
       4.630477 -1.4277829 -54.211853 0.7865865
0000f0 08 b6 c6 3e f1 79 04 c0 e7 d8 af bf 47 06 03 41
       0.38810754 -2.0699427 -1.3738068 8.189033
000100 ab 7c 9d 40 7e 89 b5 be d7 dc dd 40 a5 33 f2 bf
       4.9214683 -0.3545646 6.933208 -1.8922011
000110 c9 e8 b3 bf dc 07 03 c0 b0 93 fd 40 f7 c8 86 40
       -1.4055415 -2.0473547 7.9242783 4.212032
000120 71 7c ab be e2 ed 42 bf f2 d7 b8 40 19 e6 96 bf
       -0.3349338 -0.7614423 5.7763605 -1.178897
000130 f4 94 2b c1 18 74 d4 bf 90 8c 0a c0 34 41 26 40
       -10.7238655 -1.6597929 -2.1648293 2.5977297
000140 1a d6 ca 3e 66 fc a2 be 18 60 da c0 bf d6 b0 bf
       0.39616472 -0.3183319 -6.82423 -1.3815535
000150 95 02 b0 bf 0b 6d dc 3f 65 c7 7d c1 51 fb 52 c1
       -1.3750788 1.7220777 -15.86118 -13.186357
000160 b3 0d 15 41 c5 20 e4 bf 9c c2 c2 3f 20 2b 4c bf
       9.315845 -1.78225 1.521564 -0.79753304
000170 38 32 cc 3f f7 60 00 c0 ee 93 93 3e 32 6a 5e 3f
       1.5952826 -2.0059183 0.288238 0.8688079
000180 a0 b7 a1 3f 06 b5 8f 3e 6f f1 04 c0 f3 bf dc bf
       1.2634163 0.28067797 -2.077236 -1.7246078
000190 51 c5 c5 bf 5a f6 08 c0 d3 7e 10 c1 fe 77 37 c0
       -1.5450841 -2.140036 -9.030963 -2.8666987
0001a0 06 11 44 40 05 b8 6f bf 08 95 db c0 17 44 38 c0
       3.063539 -0.93640167 -6.8619423 -2.8791559
0001b0 cb f8 d2 be 9c 05 e6 bf 60 77 c2 c0 3c b3 8e bf
       -0.4120544 -1.7970462 -6.077072 -1.1148448
0001c0 4b 94 8c 40 fa 13 05 bd 95 11 b8 c0 1c c4 b5 bf
       4.393102 -0.032489754 -5.7521462 -1.4200473
0001d0 64 87 d9 bf 92 e1 c2 bf e3 d3 16 41 17 2a 07 c1
       -1.6994443 -1.5225089 9.42673 -8.447776
0001e0 0d f4 71 bd 8c e0 8c bf a0 98 5e c1 cc bb 1d bf
       -0.059070636 -1.1006026 -13.912262 -0.6161468
0001f0 78 ba f9 3f 81 7a 14 c0 13 3d 53 3b 8c 2d 03 c1
       1.9510031 -2.319977 0.0032232448 -8.19862
000200 a8 5a 34 41 c8 4b ea bd 4c 4a fa 3f ae 48 f2 bf
       11.272133 -0.114402354 1.9553924 -1.892843
000210 a3 e6 d1 bf c6 d4 d7 bf 36 bf 2c c1 3b 06 bd c0
       -1.639851 -1.6861808 -10.796682 -5.9070106
000220 01 9d a4 3e dd a4 82 be 38 d3 9d c1 1d 8d 8b bf
       0.32151034 -0.25516406 -19.728134 -1.0902439
000230 8a 9e 81 40 33 a5 e8 bf f4 1f 82 c1 e1 16 ae c0
       4.050603 -1.8175415 -16.265602 -5.440293
000240 2a 52 fc bf a4 eb 94 be d7 53 1d 41 4a 34 dc bf
       -1.9712574 -0.2908603 9.832969 -1.7203457
000250 59 f2 df bf 63 3b fe bf d6 26 4f 3f 35 30 a7 c0
       -1.7495834 -1.9861873 0.80918634 -5.2246346
000260 88 26 65 c1 f8 c2 66 3f 57 ca 9a c0 16 79 6d bf
       -14.321907 0.9014125 -4.8371997 -0.9276289
000270 d9 c8 52 40 f2 f1 90 bf 23 e6 ba 3f 0b 3f d1 c0
       3.2935088 -1.1323836 1.4601482 -6.5389457
000280 bd 80 ab 3f 72 42 a7 3e 0c be b7 bf ee e0 b1 bf
       1.3398663 0.3266788 -1.4354873 -1.3896768
000290 f2 18 fa bf 1b df 08 c0 a5 df 96 3f fb cf ac bf
       -1.9538863 -2.1386173 1.1787001 -1.3500971
0002a0 26 ee a7 3f 0a b6 e0 bf a9 59 26 c0 4d 02 2d 40
       1.3119552 -1.7555554 -2.5992224 2.7032654
0002b0 a8 ad b8 bf 6b 42 21 c0 8c 0c 9f bf 45 25 45 be
       -1.4427996 -2.5196788 -1.2425704 -0.19252498
0002c0 5f ab fd bf 58 e8 9f be 7f b9 ec 40 3d 10 f8 bf
       -1.9817923 -0.31231952 7.3976436 -1.9379956
0002d0 69 75 df bf b1 0b 0c c0 af fb ac bf fc 70 9f be
       -1.7457706 -2.1882136 -1.3514308 -0.31140888
0002e0 3a c0 bf c1 01 e0 e3 3f 0e 97 29 40 79 7d c7 3d
       -23.96886 1.7802736 2.6498446 0.09740729
0002f0 6f ae 15 41 e6 b5 d4 bf 92 0a e4 3e 96 55 72 40
       9.355086 -1.6618011 0.44539315 3.7864738
000300 6c 73 8b 3f a8 97 db 3c 1a f7 09 40 b5 00 ce bf
       1.0894599 0.026805714 2.155707 -1.6093966
000310 7d de c8 bf a1 5a dc bf d0 d0 6b bf 2a 7f 2b 3f
       -1.5692898 -1.7215158 -0.921155 0.6699091
000320 95 d5 9a 3f ba a8 19 3f 48 00 25 bf ff 83 0e be
       1.209643 0.6002308 -0.64453554 -0.1391754
000330 60 00 d7 3e fa 23 0d c0 5c ae f8 3c 5b 52 f2 3f
       0.41992474 -2.2053208 0.030356579 1.8931383
000340 26 23 60 c1 02 42 a3 3d 4e 81 70 41 da 1e e1 bf
       -14.008581 0.07971574 15.031569 -1.758754
000350 67 68 07 c0 c8 69 c7 bf a5 83 28 c1 90 68 b4 be
       -2.1157472 -1.5579157 -10.53214 -0.35236025
000360 a8 77 39 41 4a f4 be bf e5 f0 38 c0 fd 6b 2f c0
       11.591713 -1.4918301 -2.889703 -2.740966
000370 0a 55 26 bf b3 40 8e be 17 e3 0b 3f 13 46 79 40
       -0.6497351 -0.27783737 0.54643387 3.894902
000380 b5 48 16 be 5b 0e d0 be 29 a7 16 40 a6 5e b1 bf
       -0.14676173 -0.40635952 2.3539526 -1.385701
000390 bd ca c2 bf 6f b4 b8 bf 3a 4b ee c0 f6 01 17 41
       -1.5218121 -1.4430064 -7.446683 9.437979
0003a0 7d 16 51 40 e5 93 9d bf f9 dd 1e 41 71 76 15 c0
       3.2669976 -1.2310759 9.929193 -2.335354
0003b0 9a 6a 66 41 c6 2d 69 bf 45 2c 8b bf a4 b2 aa 41
       14.401026 -0.9108547 -1.0872885 21.337227
0003c0 4c 26 8f bf 52 36 46 bd 0a 9e 8c be 9a 82 b9 bf
       -1.1183562 -0.048391648 -0.27464324 -1.4492981
0003d0 7b 74 ef bf f1 95 c3 bf 59 09 5a be 9f ac 0d c0
       -1.8707422 -1.5280133 -0.21292628 -2.213661
0003e0 34 13 8d 3f ff ba 65 bf 3e 41 8a bf aa 6f 11 40
       1.1021485 -0.8973846 -1.080116 2.2724404
0003f0 4b 0d a1 bf 82 c6 f8 bf 61 88 1c bf f1 4b d7 3d
       -1.2582182 -1.943558 -0.611456 0.105125315

conv2.bias f4 [16]
000000 84 7d dd 41 00 00 00 00 03 18 52 40 27 f4 c7 bf
       27.686287 0.0 3.2827156 -1.5621384
000010 7d 9c e6 bf 7a 9c e6 bf 37 c9 03 41 17 83 da 41
       -1.8016506 -1.8016503 8.236625 27.314009
000020 cc 83 55 40 1b de 28 c0 8c c5 98 c1 a3 28 27 c0
       3.3361692 -2.6385562 -19.096458 -2.6118553
000030 98 e2 72 41 77 22 16 c0 42 06 e0 42 a4 d0 a6 40
       15.180321 -2.3458536 112.01222 5.212969

fc1.weight f4 [16, 16]
000000 15 8f 51 41 60 3e b0 3d 37 99 db c0 3a f0 ea 3f
       13.097432 0.08605647 -6.862453 1.8354561
000010 d2 0d f3 3f f8 08 f0 bf 1e e3 ac bf b2 de 73 3c
       1.8988593 -1.8752737 -1.3506811 0.014884638
000020 cf da 4a 3e 7f 17 1c 3f 54 0b 4b 3f 07 f2 ee be
       0.19810031 0.6097335 0.7931416 -0.46669027
000030 a6 a5 5d c0 44 31 05 40 1b f3 1a c2 25 54 b6 3f
       -3.4632354 2.081132 -38.737408 1.4244429
000040 99 30 0c c0 c0 d2 32 3d 12 82 17 40 07 55 02 c0
       -2.1904662 0.043658018 2.3673139 -2.0364397
000050 dc ef fa 3f 7e 00 eb 3f 69 2b c6 3f 4d 4e 41 bf
       1.9604449 1.8359525 1.5481998 -0.755101
000060 45 9d 1a 40 92 be 73 3f d9 18 ac 3f e9 e3 83 3e
       2.415849 0.9521266 1.3445083 0.2575982
000070 50 fb 0a 3f 46 bb 9b 3f 2d 1b 95 3f 2a 3f 35 3f
       0.5428972 1.2166526 1.1648918 0.70799506
000080 66 62 3c 41 8c ba 6f 3e 47 27 48 41 1a b0 fe 3f
       11.774023 0.23411006 12.509589 1.9897492
000090 92 30 d7 3f fe a3 01 40 94 49 9f bf 3a a1 c5 bf
       1.6811697 2.0256343 -1.2444329 -1.5439827
0000a0 8f 5c fa 40 eb b4 4f bc bf d4 d8 40 75 6e 0a c0
       7.8237987 -0.012677412 6.77597 -2.1629918
0000b0 e0 d6 d6 3e 5f 7c d8 3f 8d 6e 90 be 47 62 3a 3f
       0.41960812 1.6912955 -0.28209344 0.7280621
0000c0 03 ec 1e 3e 02 d5 00 be c7 8e e5 bf 36 f8 dc 3f
       0.15519719 -0.12581256 -1.7934197 1.7263248
0000d0 1b 65 d6 3f a4 ca e8 bf ea 81 3f bf 48 42 2e bf
       1.6749605 -1.8186841 -0.7480761 -0.6806989
0000e0 c2 0f 8f bf 42 fa 98 bf 75 1c cc bf 68 56 b5 bf
       -1.1176684 -1.1951373 -1.5946184 -1.4166994
0000f0 d6 49 f5 bf 70 9a cb bd 5d 66 49 c0 a5 f9 83 bf
       -1.9163158 -0.09941566 -3.1468728 -1.031056
000100 be 5d 5c c0 9c 2c 90 bd 00 0f 12 40 39 01 03 c0
       -3.4432216 -0.070397586 2.2821655 -2.0469496
000110 07 bb cf bf d8 65 c9 3f a6 0c ff 3e 1b 11 5d c0
       -1.6228951 1.5734205 0.49814337 -3.454169
000120 e5 84 93 3f c8 62 06 bf 05 18 41 3e 08 ec b0 bd
       1.1524931 -0.5249448 0.18856819 -0.086387694
000130 5e 8b 88 bf e0 3a 02 c0 60 83 cc bf b7 19 05 c0
       -1.0667531 -2.0348434 -1.5977592 -2.0796945
000140 bc c4 8b c0 6c 95 46 be 23 09 03 41 15 77 e8 bf
       -4.3677654 -0.19392937 8.189731 -1.8161341
000150 03 67 eb bf b9 29 e2 bf 30 7b 41 c0 4a fe 34 3f
       -1.8390812 -1.7668983 -3.0231438 0.70700514
000160 0a a5 ac bf 0d d6 ab 3f ea fb 4c c0 97 e5 ab 3f
       -1.3487866 1.3424698 -3.2028756 1.342944
000170 ae 6e a1 40 81 e2 1a 40 c5 17 05 42 09 f6 05 c0
       5.0447607 2.4200747 33.273212 -2.0931418
000180 cd 29 c9 40 3c 40 70 3e fc 07 f1 3f 96 b9 c9 3f
       6.2863526 0.23462003 1.8830562 1.5759761
000190 3d db e6 bf 43 f7 e9 bf 40 f7 40 c1 a0 0d 9c bf
       -1.8035656 -1.8278583 -12.060364 -1.2191658
0001a0 74 2a 0d c0 13 88 f6 3d 6d fc 9d 40 eb da bf be
       -2.2057161 0.12037673 4.9370637 -0.3747171
0001b0 89 44 9f 3f 63 f6 d1 3f 23 d2 54 41 17 e7 a2 c0
       1.244279 1.6403316 13.301303 -5.090709
0001c0 fc a8 6a c0 bc e9 b5 bd 31 31 1f 40 82 42 e3 3f
       -3.666564 -0.08882472 2.4873774 1.7754672
0001d0 be 83 ce 3f 0b 45 f2 3f 1b b6 72 3f 62 ed d9 bf
       1.6133955 1.892732 0.9480912 -1.7025568
0001e0 25 89 33 bf ec 72 d2 bf 68 ac af 3f ef ac 45 bf
       -0.7013114 -1.6441321 1.3724489 -0.77217
0001f0 34 6c c1 bf 77 61 da 3f 98 70 66 bf 6b 49 1a c0
       -1.5111146 1.7060994 -0.90015554 -2.410731
000200 d9 8d 49 40 f4 9e 21 3e f1 53 5a bf 9f de cd bf
       3.1492827 0.15783292 -0.85284334 -1.6083564
000210 36 6a cb bf e9 cb c9 3f e2 66 bf c0 e7 5e 36 40
       -1.5891788 1.5765353 -5.981309 2.8495424
000220 11 6d 49 c1 c7 20 a9 3f 2a 29 12 41 12 3b f7 3e
       -12.589128 1.3213128 9.13505 0.48287255
000230 45 8b 13 c1 69 0d f1 bf ce ba 00 3e ac 02 2a 41
       -9.221501 -1.8832217 0.1257126 10.625652
000240 10 52 69 c1 66 f7 5e 3e 0e e9 1b 3f 3f fe c7 bf
       -14.582535 0.21774063 0.6090249 -1.5624465
000250 a1 75 ec bf d2 6d df 3f 53 d5 5e c1 60 af a9 41
       -1.8473397 1.745539 -13.927081 21.210632
000260 30 51 52 41 c2 5f 2b 40 30 0e 80 c1 97 4f c5 3f
       13.144821 2.6777196 -16.006927 1.5414914
000270 24 1c d7 3f e3 03 ea bf f7 39 67 41 94 80 ec 40
       1.6805463 -1.8282436 14.451652 7.3906956
000280 8f 19 9c c1 5c d6 7d 3e e9 04 4b 40 ba ce d1 3f
       -19.51248 0.24788803 3.1721747 1.6391213
000290 c3 64 f8 bf 69 62 00 40 81 ab 7b 41 63 b1 3a bf
       -1.940575 2.0060065 15.729371 -0.7292692
0002a0 b2 d9 84 bf 6c dd d7 3f 33 b6 b8 40 89 90 a3 3f
       -1.0378935 1.6864448 5.772241 1.2778484
0002b0 ad 48 7c c0 e7 8d 5a 3f a1 74 ff 40 da f5 a3 40
       -3.9419358 0.85372776 7.982987 5.123761
0002c0 0d 47 c1 3f 58 42 03 3d 12 28 d4 c0 26 1d f2 bf
       1.5099808 0.032045692 -6.6298914 -1.8915145
0002d0 c8 b6 d3 3f 72 6e c7 bf f7 af 87 40 e7 7f 63 bf
       1.6540155 -1.558058 4.24023 -0.8886704
0002e0 86 64 52 41 42 80 bd 3e 85 db 82 c1 24 a8 32 40
       13.149542 0.37011915 -16.357187 2.7915125
0002f0 4b b8 12 41 32 52 4a 3f a4 c1 d2 c0 2e 18 ec c0
       9.169993 0.7903167 -6.586138 -7.3779516
000300 24 91 5d 40 88 4e 63 3d 28 26 d7 bf c5 fc 00 40
       3.4619837 0.055494815 -1.6808519 2.0154278
000310 0e be e4 bf 2a 26 f7 3f c5 2c 89 bf 8b 16 49 3f
       -1.78705 1.9308522 -1.0716788 0.7855002
000320 8a 54 e6 bf 6a 8c e1 3f 92 17 e4 bf 93 c8 29 c0
       -1.7994549 1.7620976 -1.7819693 -2.652867
000330 1c 14 bd 3f fb 7d cd bf 5c a8 a4 3f 5a 7a 87 3f
       1.4771762 -1.6054071 1.2863879 1.0584214
000340 bc 0b 9f 40 2a 83 73 3e 90 bf 90 c0 6a 6a e5 bf
       4.9701824 0.23780504 -4.523384 -1.79231
000350 06 fd 01 c0 6c 74 ce bf 6e ba a4 bf 92 9d 36 bf
       -2.0310683 -1.6129279 -1.2869394 -0.71334183
000360 f3 2f ab bf 06 87 db 3f 2d 37 58 bf 89 0b 04 be
       -1.3374008 1.7150581 -0.8445919 -0.12895025
000370 1c 21 c4 3e 22 fd be bf 7b bb aa c0 af b8 0c c0
       0.3830651 -1.4921 -5.335386 -2.1987722
000380 9d d8 bf bf 80 08 4b bb 64 63 86 bf 1d 89 c9 3f
       -1.498798 -0.0030980408 -1.0499082 1.5744969
000390 8b 26 c8 3f 31 d9 f3 bf 32 d6 a5 3c 2b 7a 68 3d
       1.5636762 -1.9050657 0.020243738 0.056757133
0003a0 5e 33 7b c0 7f 10 1d c0 42 40 90 c0 54 15 20 40
       -3.9250102 -2.4541318 -4.507844 2.5013018
0003b0 87 05 94 3f 28 eb c8 3f ae 10 10 bf f2 39 43 c0
       1.1564187 1.5696764 -0.5627545 -3.0504117
0003c0 86 ef 6e c0 d0 13 0c be af 38 6e c1 d1 ac cb 3f
       -3.7333694 -0.13679433 -14.888839 1.5912114
0003d0 a2 cb f8 3f 29 d7 e3 3f 1d 92 15 3f da 73 0c c0
       1.9437144 1.7800037 0.58426076 -2.194571
0003e0 eb 8f a8 40 56 9b dd bf f0 fe 54 c1 b7 39 a1 bf
       5.267568 -1.731303 -13.312241 -1.2595738
0003f0 7c bb 59 41 77 8f e9 3f fd 44 4e c0 cf b6 73 c1
       13.608273 1.8246907 -3.2229607 -15.232131

fc1.bias f4 [16]
000000 df cf f6 be ce 31 54 3e b9 30 39 bf a7 9b a8 3e
       -0.48205468 0.20722124 -0.7233997 0.32931253
000010 54 34 c5 be a2 f8 24 40 8a 32 a0 bf bf d9 0f c0
       -0.38516486 2.5776753 -1.2515423 -2.2476652
000020 94 08 d4 3f 5b 4c 5c c0 d7 e5 91 3f b0 0e 2e 3f
       1.6565118 -3.4421604 1.1398267 0.6799116
000030 35 21 c1 3f 87 48 db bf 95 cc 0c c0 3c 08 07 c0
       1.5088259 -1.7131509 -2.1999867 -2.1098776

fc2.weight f4 [16, 16]
000000 fb 14 b5 be 77 08 23 bf 5d 57 bb 3e 68 7a 16 be
       -0.3536757 -0.6368479 0.3659009 -0.14695132
000010 d6 a9 b2 bf 36 7a 54 bf fd 1f c8 3e 7c 09 bf bf
       -1.395808 -0.8299898 0.39086905 -1.4924769
000020 6b 96 45 bf 1c 54 fe bf 29 59 20 be 00 89 80 bf
       -0.77182645 -1.9869418 -0.15659012 -1.0041809
000030 e2 f3 23 bf 83 41 3a be b3 25 a3 bf 67 8e 57 bf
       -0.6404401 -0.18189053 -1.274588 -0.84201664
000040 47 02 59 c0 73 3d 3d bf 25 75 d9 3d 9f c2 04 bf
       -3.390764 -0.7392189 0.10618047 -0.5185947
000050 b7 2a d8 be 56 78 6a c0 0e 20 1b c0 8f 1d d2 be
       -0.4222009 -3.6635947 -2.4238315 -0.41038176
000060 29 b2 9a c0 05 aa 59 bf ed 70 85 c0 27 da 94 c0
       -4.834248 -0.85025054 -4.170035 -4.65163
000070 4a 3c e6 be 70 95 ef be a4 07 96 bd 8d 1f 32 3f
       -0.44967872 -0.467937 -0.07325676 0.6957939
000080 ec 2d 50 bf 1b 17 ed bf 45 a1 8a be c2 88 c3 bf
       -0.8132007 -1.8522676 -0.27076164 -1.527611
000090 e1 f8 e4 bf 7d 95 8e bf bc a1 89 3f 27 0f c8 bf
       -1.7888452 -1.113937 1.0752482 -1.5629624
0000a0 f0 58 38 c0 9c 54 aa c0 2e 92 d9 c0 97 cf fa bf
       -2.8804283 -5.3228283 -6.799094 -1.9594601
0000b0 50 ed d0 bf 86 3f 10 bf 1f c0 c1 bf 99 a5 2c c0
       -1.6322422 -0.5634693 -1.5136756 -2.6976073
0000c0 76 62 1a 3f 15 49 f5 3e b5 e0 90 c0 e8 ca d6 3e
       0.6030649 0.4790732 -4.52743 0.4195168
0000d0 77 1e 2e 3f d9 90 12 be ad 8b d3 bf 59 ed 3a 3f
       0.68015236 -0.14313067 -1.6527001 0.73018414
0000e0 4b 3c da 3f f5 f0 23 41 39 35 08 bf 4d d9 b9 bc
       1.704965 10.246327 -0.5320621 -0.022686625
0000f0 99 4a 28 3f 85 29 56 3f 9c 89 c7 3f f2 71 75 40
       0.65738827 0.83657104 1.558887 3.8350797
000100 46 0c 83 bf 24 46 f1 be 36 ee 89 bf 54 d0 06 3e
       -1.023812 -0.47123826 -1.0775821 0.13165408
000110 e1 10 89 bd 43 33 85 bf ed df 95 bd f0 d5 2f be
       -0.066926725 -1.0406269 -0.07318101 -0.17171454
000120 7b 78 d5 bf ae 86 8b 40 3e 3c 02 c0 15 61 57 bf
       -1.6677393 4.3601904 -2.034927 -0.8413251
000130 d6 09 56 be ac 3c af bf ad 4f fc 3e 3b 31 93 3e
       -0.2090219 -1.369039 0.49279538 0.28748497
000140 ba e8 81 bf 6c 8a 76 bf 7f 28 e7 bd 08 84 c0 be
       -1.0149148 -0.96304965 -0.11287021 -0.37600732
000150 b6 bc fe be 9e fe f3 bd f0 a9 11 c0 11 ce e4 bd
       -0.4975335 -0.11913799 -2.2759972 -0.111721165
000160 4a b4 62 be 5a d8 a7 be bf f2 04 c0 85 20 0f c0
       -0.22139087 -0.3278225 -2.077316 -2.2363598
000170 c1 37 f3 be 95 b3 d0 be c4 03 8e be 8f e5 06 c0
       -0.47503474 -0.4076201 -0.27737248 -2.1077611
000180 c1 3e 12 c0 00 35 bb bf 4d f6 78 3f 0d 21 c8 bf
       -2.2850802 -1.4625549 0.97250825 -1.5635086
000190 a0 b3 ba bf 5c f0 00 c1 19 b2 6b 40 50 36 ca bf
       -1.4586067 -8.0586815 3.6827452 -1.5797825
0001a0 8c 6c 1d c0 1c 80 a8 c0 f1 a7 09 c1 58 70 31 c0
       -2.4597502 -5.2656384 -8.603501 -2.772482
0001b0 eb 44 aa bf 9c 31 8f 3f 3f 27 6f bf 80 f5 21 40
       -1.3302282 1.1187015 -0.9341926 2.5306091
0001c0 b2 d9 72 c0 f1 62 34 bf 81 0d 22 3e fd b0 54 be
       -3.794537 -0.7046347 0.15825464 -0.2077064
0001d0 94 a4 96 3b 35 f0 8c c0 d0 54 14 c0 f5 fe 14 bf
       0.004597256 -4.404322 -2.3176765 -0.58201534
0001e0 8f 35 92 c0 d7 08 8d bf b5 ea 97 c0 6d d9 91 c0
       -4.569038 -1.1018323 -4.7474008 -4.557791
0001f0 d1 38 21 bf 8b e9 9c be 8b 5f e4 be 25 c7 b4 3f
       -0.6297732 -0.3064693 -0.44604144 1.4123274
000200 42 db d8 c0 ae a9 8b bf da ee ac 3f d2 6a eb be
       -6.776765 -1.0911157 1.3510392 -0.45979935
000210 8d c4 4b bf 25 0d bd c0 c6 46 ed bf e2 d5 6d bf
       -0.7959679 -5.9078546 -1.8537223 -0.92904484
000220 20 f3 82 3f 15 14 24 40 ff 4b 52 c0 83 81 2f 3f
       1.0230446 2.5637257 -3.2858884 0.68556994
000230 48 92 65 bf d1 ae 1a c0 92 dd 56 bf 6b b6 78 c0
       -0.8967633 -2.41692 -0.8393184 -3.886134
000240 74 93 d0 c0 45 3c bc bf ae 89 0e 41 42 d2 d8 bf
       -6.5179996 -1.4705893 8.908613 -1.6939166
000250 6a 55 a5 bf 8b ba ee c0 3f c1 9b c0 43 81 ad bf
       -1.2916691 -7.4602714 -4.8673396 -1.3555073
000260 c9 5f 3a c1 68 03 d6 c1 99 66 00 c1 ed 2d f2 c0
       -11.648385 -26.751663 -8.025048 -7.568106
000270 36 1b c7 be 63 e3 b0 c0 29 b1 90 bf c3 b8 bd c0
       -0.38887948 -5.527757 -1.1304065 -5.928804
000280 70 56 03 3d 75 19 68 bf 3b 79 c4 bf 39 30 29 be
       0.032064855 -0.90663844 -1.5349497 -0.16522302
000290 46 2c 96 be 70 43 68 c0 03 43 67 bf df 7c 0b be
       -0.29330653 -3.629116 -0.90336627 -0.13621853
0002a0 65 d9 00 c0 2c 91 11 be e8 76 32 be e0 0e 2f c0
       -2.0132687 -0.14215535 -0.17428172 -2.735283
0002b0 07 c6 17 bf b2 dc 79 bf fb 1d 15 be 88 81 d8 bf
       -0.5928654 -0.9760238 -0.14562218 -1.691453
0002c0 2a d2 39 c0 2a ea ca bf af 96 d4 3f 12 94 c1 bf
       -2.9034524 -1.5852711 1.6608485 -1.5123312
0002d0 d1 e2 f3 bf 0c 3f a5 c0 f3 b9 48 3f 6d db c0 bf
       -1.9053594 -5.163946 0.78408736 -1.5066963
0002e0 99 d4 fd bf e6 31 d2 c0 48 71 02 c0 5c 76 65 c0
       -1.9830505 -6.568591 -2.0381641 -3.585349
0002f0 c1 f4 ce bf 0e d1 9f bf 20 91 d8 bf ac 6c 41 c0
       -1.6168443 -1.2485673 -1.6919289 -3.0222578
000300 75 cf eb c0 18 8a ba bf a4 89 8d 40 cf 8e d1 bf
       -7.3690743 -1.4573393 4.423052 -1.6371707
000310 96 0f bf bf 68 bf 2c c1 59 51 a7 3f 1d 5c b9 bf
       -1.4926631 -10.79673 1.30717 -1.4481236
000320 18 8a ec c0 f2 f2 9c c1 c9 d7 c0 c0 02 79 28 c1
       -7.391857 -19.618626 -6.026341 -10.529543
000330 7c 5b a3 bf 5a b7 49 c0 42 48 b2 bf e6 d4 94 c0
       -1.2762294 -3.151816 -1.3928301 -4.6509886
000340 8b 48 be bf ec 1b 11 3e 45 04 33 3d 56 47 e2 3e
       -1.4865888 0.14170808 0.043705244 0.4419505
000350 3e 5f 1e 3f dd 6c 00 3d 7d 2f 6e bf 06 d1 e6 3e
       0.6186408 0.03135382 -0.9304121 0.45081347
000360 d4 f7 4a bf b7 1a 27 41 97 04 87 c0 1c c4 09 c0
       -0.79284406 10.444022 -4.2193103 -2.1525946
000370 62 3f a4 be ee 14 10 c0 7c 3c 80 3f e0 29 de 3f
       -0.32079607 -2.2512774 1.0018458 1.7356529
000380 3a 21 5d be 8b dc 91 be d3 c3 6e bf fb c4 8a be
       -0.21594706 -0.28488573 -0.93267554 -0.2710341
000390 11 9f 77 3d 59 18 e7 bf 20 87 ac bf 1c 99 77 be
       0.060454432 -1.8054305 -1.3478737 -0.241795
0003a0 02 b2 9e bf 13 ba 4e 40 ee 1b 0b c0 d6 69 9e bf
       -1.2398074 3.230107 -2.1735797 -1.2376049
0003b0 88 5b c7 bd 62 36 a0 bf 47 0d 83 bd a9 b7 1e bf
       -0.09734255 -1.2516596 -0.06399017 -0.61998993
0003c0 7d 78 3e bf f5 dd d3 bf bd 88 f4 3d bd 48 df bf
       -0.744026 -1.6552111 0.11940143 -1.7444073
0003d0 57 4b d8 bf d0 d4 05 c0 c6 3a 7c 3e c6 17 da bf
       -1.6897992 -2.091114 0.24631795 -1.7038505
0003e0 5d c4 7f bf 6f 3a 88 c0 6e d8 5e be 48 77 c7 bf
       -0.99909 -4.257133 -0.21762249 -1.5583277
0003f0 c9 51 d8 bf 4f fc 36 bf 81 21 d1 bf 4e 52 17 c0
       -1.6899959 -0.7147874 -1.633835 -2.3643985

fc2.bias f4 [16]
000000 2c 4f 88 bf 88 e7 87 3f 07 10 39 c0 f3 c6 9c be
       -1.0649161 1.0617533 -2.8916032 -0.30620536
000010 ea 84 e8 3f 59 a7 03 40 db d0 04 c1 9c 7a 81 3f
       1.8165562 2.057089 -8.30099 1.0115542
000020 fc d0 b2 40 99 36 02 c1 ca 08 68 40 c1 2c 39 c0
       5.588011 -8.1383295 3.6255364 -2.8933566
000030 8d a8 b1 c0 07 f6 21 bf 84 90 73 3f c2 5c a8 bf
       -5.551825 -0.6326603 0.9514239 -1.3153307

fc3.weight f4 [1, 16]
000000 6d fc 71 be d8 4a e8 bf db 2f 28 3f 7f 71 bd 3e
       -0.23631449 -1.814784 0.6569802 0.37000653
000010 3c ad ac be 12 78 ec be de f1 d8 bf 6b e9 01 c0
       -0.33725917 -0.46185356 -1.6948812 -2.0298717
000020 ec d2 7d bf 72 53 93 c0 30 9d fc 3e f5 2b 13 c0
       -0.99149966 -4.603936 0.49338675 -2.299558
000030 26 ad df c0 75 4e aa 3f 6a 08 a7 be c6 79 25 bf
       -6.9898863 1.3305193 -0.32623607 -0.64638937

bn2.weight f4 [16]
000000 06 aa 9d 40 f5 57 aa bd 47 59 04 40 4c d5 90 3d
       4.927005 -0.08317558 2.067949 0.07071933
000010 47 ed db 3d 02 fa 8f 40 c5 f5 e9 3f 88 3c 8c 3d
       0.107386164 4.4992685 1.8278128 0.06847483
000020 3e 25 1f 40 cb b4 a2 40 16 0f 8d 40 f5 2c 53 40
       2.486648 5.0845695 4.4080915 3.299619
000030 45 bb 2c 3e 07 92 08 40 b2 56 2f be ef a1 79 40
       0.16868313 2.1339128 -0.17122915 3.9005086

bn2.bias f4 [16]
000000 c9 4c 9e bd 07 d9 a4 bf 14 d6 ca c0 d1 74 7d bf
       -0.07729489 -1.2878731 -6.3386326 -0.9900637
000010 46 15 7b bf 03 82 8a be 4d ca 2d be b0 17 76 bf
       -0.98079336 -0.27052316 -0.16971703 -0.96129894
000020 76 ba 0a bf 4f 3d 66 c1 d8 9c 08 bf 0f 73 c9 be
       -0.54190767 -14.389968 -0.53364325 -0.39345595
000030 11 93 9c bf 09 37 11 c0 98 a4 c7 bf aa fe 1a c1
       -1.2232381 -2.268984 -1.5597105 -9.687174

bn2.running_mean f4 [16]
000000 36 c4 4e 42 43 9c 75 c1 50 49 73 42 e1 53 90 40
       51.691612 -15.35065 60.821594 4.510239
000010 79 c1 70 c1 dc 8a ce 40 cb 60 60 42 93 b6 d0 c1
       -15.047235 6.4544506 56.094524 -26.089148
000020 9f 15 cb 40 45 88 c3 c2 ee 18 11 c3 ba f4 e0 41
       6.3463893 -97.76615 -145.09738 28.119495
000030 bc f5 e0 41 5a 38 ef 41 b2 1a 3b c0 6d c5 0a 40
       28.119987 29.902515 -2.9235044 2.1683

bn2.running_var f4 [16]
000000 ae db 13 4b 8c b7 23 48 a9 15 0f 4a 18 62 52 47
       9.69003e+06 167646.19 2.3442982e+06 53858.094
000010 d6 97 c7 48 04 14 8c 4a 5a 01 a3 49 77 5e dd 48
       408766.7 4.590082e+06 1.3353392e+06 453363.72
000020 47 91 f7 49 81 d5 3e 4b 02 ac f2 4a 37 61 37 4a
       2.0280729e+06 1.2506497e+07 7.951873e+06 3.0044938e+06
000030 3a b6 a7 48 65 06 73 49 26 a7 30 48 db 37 61 4a
       343473.8 995430.3 180892.6 3.6899748e+06

bn1.weight f4 [16]
000000 95 aa b4 3f 32 5a ab 40 0c 8e d7 40 96 e4 7b 41
       1.4114558 5.35476 6.7360897 15.743307
000010 28 35 fe 3f 4f e6 30 41 22 3b 5e 40 77 b6 d8 c0
       1.9859972 11.056228 3.4723592 -6.7722735
000020 2e 6c 25 41 40 9f b0 40 42 40 e1 bd f0 bb 30 41
       10.338911 5.5194397 -0.10998584 11.045883
000030 76 4f ab 3e 96 6d c8 40 c4 3b 01 41 a0 db bd 3d
       0.3345906 6.263377 8.077091 0.09270406

bn1.bias f4 [16]
000000 00 c1 40 c0 30 53 d0 3e 4e 82 5d 41 6b 21 9f c1
       -3.0117798 0.40688467 13.844313 -19.891317
000010 90 a2 83 40 4f 8b 37 c1 2b 8c 32 c1 56 cf 17 c0
       4.113594 -11.471511 -11.159221 -2.3720298
000020 ba 1f 9a 40 b1 0e 84 bd 7f 90 b7 bf 6f f2 e9 c0
       4.816373 -0.06448115 -1.4340972 -7.310844
000030 6b 5a 84 bf 8c f1 0b 41 95 c8 32 40 ef c0 4b c0
       -1.0340093 8.746471 2.7934926 -3.1836507

bn1.running_mean f4 [16]
000000 82 db af bf 9e b7 c8 40 78 e8 2a bf 3b 49 b2 c0
       -1.3738863 6.272414 -0.6676097 -5.5714393
000010 3e 53 b2 bf 9f 4b e7 bf b7 91 c1 be 4a 92 8f 41
       -1.3931653 -1.8069953 -0.37806484 17.94643
000020 ac d5 d6 c0 3c f1 5c c0 83 01 6c c0 b9 2c d8 bd
       -6.713583 -3.4522238 -3.6875923 -0.10555405
000030 c7 b8 97 3e 17 11 ca bf 48 13 d3 c1 ff 24 7a 3f
       0.2963316 -1.5786465 -26.384415 0.977127

bn1.running_var f4 [16]
000000 b6 d7 ba 3d b2 45 98 3f 4e 8e c2 3e b4 9c 04 40
       0.09123175 1.1896269 0.37999195 2.0720644
000010 e4 94 56 3e 45 6b ef 3e 7b 63 da 3d 4d d2 27 40
       0.20955235 0.46761528 0.10663506 2.6222107
000020 36 3b bc 3e 92 ec e2 3e d6 58 0b 3d d0 6c ef 3d
       0.36763924 0.44321114 0.034020267 0.11690676
000030 e3 c0 5c 3c 9b d9 35 3e ba ea 5a 40 85 cf 10 3d
       0.013473722 0.17758791 3.4205766 0.035354156
